Model: "functional_1"
┏━━━━━━━━━━━━━━━━━━━━━━━━━━━━━━━━━┳━━━━━━━━━━━━━━━━━━━━━━━━┳━━━━━━━━━━━━━━━┓
┃ Layer (type)                    ┃ Output Shape           ┃       Param # ┃
┡━━━━━━━━━━━━━━━━━━━━━━━━━━━━━━━━━╇━━━━━━━━━━━━━━━━━━━━━━━━╇━━━━━━━━━━━━━━━┩
│ input_layer_1 (InputLayer)      │ (None, 64, 64, 3)      │             0 │
├─────────────────────────────────┼────────────────────────┼───────────────┤
│ conv2d_4 (Conv2D)               │ (None, 64, 64, 32)     │           896 │
├─────────────────────────────────┼────────────────────────┼───────────────┤
│ batch_normalization_7           │ (None, 64, 64, 32)     │           128 │
│ (BatchNormalization)            │                        │               │
├─────────────────────────────────┼────────────────────────┼───────────────┤
│ max_pooling2d_3 (MaxPooling2D)  │ (None, 32, 32, 32)     │             0 │
├─────────────────────────────────┼────────────────────────┼───────────────┤
│ conv2d_5 (Conv2D)               │ (None, 32, 32, 64)     │        18,496 │
├─────────────────────────────────┼────────────────────────┼───────────────┤
│ batch_normalization_8           │ (None, 32, 32, 64)     │           256 │
│ (BatchNormalization)            │                        │               │
├─────────────────────────────────┼────────────────────────┼───────────────┤
│ max_pooling2d_4 (MaxPooling2D)  │ (None, 16, 16, 64)     │             0 │
├─────────────────────────────────┼────────────────────────┼───────────────┤
│ conv2d_6 (Conv2D)               │ (None, 16, 16, 128)    │        73,856 │
├─────────────────────────────────┼────────────────────────┼───────────────┤
│ batch_normalization_9           │ (None, 16, 16, 128)    │           512 │
│ (BatchNormalization)            │                        │               │
├─────────────────────────────────┼────────────────────────┼───────────────┤
│ max_pooling2d_5 (MaxPooling2D)  │ (None, 8, 8, 128)      │             0 │
├─────────────────────────────────┼────────────────────────┼───────────────┤
│ conv2d_7 (Conv2D)               │ (None, 8, 8, 256)      │       295,168 │
├─────────────────────────────────┼────────────────────────┼───────────────┤
│ batch_normalization_10          │ (None, 8, 8, 256)      │         1,024 │
│ (BatchNormalization)            │                        │               │
├─────────────────────────────────┼────────────────────────┼───────────────┤
│ conv2d_transpose_4              │ (None, 8, 8, 128)      │       295,040 │
│ (Conv2DTranspose)               │                        │               │
├─────────────────────────────────┼────────────────────────┼───────────────┤
│ batch_normalization_11          │ (None, 8, 8, 128)      │           512 │
│ (BatchNormalization)            │                        │               │
├─────────────────────────────────┼────────────────────────┼───────────────┤
│ up_sampling2d_3 (UpSampling2D)  │ (None, 16, 16, 128)    │             0 │
├─────────────────────────────────┼────────────────────────┼───────────────┤
│ conv2d_transpose_5              │ (None, 16, 16, 64)     │        73,792 │
│ (Conv2DTranspose)               │                        │               │
├─────────────────────────────────┼────────────────────────┼───────────────┤
│ batch_normalization_12          │ (None, 16, 16, 64)     │           256 │
│ (BatchNormalization)            │                        │               │
├─────────────────────────────────┼────────────────────────┼───────────────┤
│ up_sampling2d_4 (UpSampling2D)  │ (None, 32, 32, 64)     │             0 │
├─────────────────────────────────┼────────────────────────┼───────────────┤
│ conv2d_transpose_6              │ (None, 32, 32, 32)     │        18,464 │
│ (Conv2DTranspose)               │                        │               │
├─────────────────────────────────┼────────────────────────┼───────────────┤
│ batch_normalization_13          │ (None, 32, 32, 32)     │           128 │
│ (BatchNormalization)            │                        │               │
├─────────────────────────────────┼────────────────────────┼───────────────┤
│ up_sampling2d_5 (UpSampling2D)  │ (None, 64, 64, 32)     │             0 │
├─────────────────────────────────┼────────────────────────┼───────────────┤
│ conv2d_transpose_7              │ (None, 64, 64, 3)      │           867 │
│ (Conv2DTranspose)               │                        │               │
└─────────────────────────────────┴────────────────────────┴───────────────┘
 Total params: 779,395 (2.97 MB)
 Trainable params: 777,987 (2.97 MB)
 Non-trainable params: 1,408 (5.50 KB)


 28/28 ━━━━━━━━━━━━━━━━━━━━ 49s 208ms/step - loss: 0.7196 - val_loss: 0.6849
Epoch 2/200
28/28 ━━━━━━━━━━━━━━━━━━━━ 5s 181ms/step - loss: 0.5924 - val_loss: 0.6805
…
│                     │ 128)              │            │                   │
├─────────────────────┼───────────────────┼────────────┼───────────────────┤
│ conv2d_71 (Conv2D)  │ (None, 16, 16,    │    295,168 │ re_lu_19[0][0]    │
│                     │ 256)              │            │                   │
├─────────────────────┼───────────────────┼────────────┼───────────────────┤
│ batch_normalizatio… │ (None, 16, 16,    │      1,024 │ conv2d_71[0][0]   │
│ (BatchNormalizatio… │ 256)              │            │                   │
├─────────────────────┼───────────────────┼────────────┼───────────────────┤
│ max_pooling2d_19    │ (None, 8, 8, 256) │          0 │ batch_normalizat… │
│ (MaxPooling2D)      │                   │            │                   │
├─────────────────────┼───────────────────┼────────────┼───────────────────┤
│ conv2d_72 (Conv2D)  │ (None, 8, 8, 256) │    590,080 │ max_pooling2d_19… │
├─────────────────────┼───────────────────┼────────────┼───────────────────┤
│ batch_normalizatio… │ (None, 8, 8, 256) │      1,024 │ conv2d_72[0][0]   │
│ (BatchNormalizatio… │                   │            │                   │
├─────────────────────┼───────────────────┼────────────┼───────────────────┤
│ conv2d_73 (Conv2D)  │ (None, 8, 8, 256) │    590,080 │ batch_normalizat… │
├─────────────────────┼───────────────────┼────────────┼───────────────────┤
│ batch_normalizatio… │ (None, 8, 8, 256) │      1,024 │ conv2d_73[0][0]   │
│ (BatchNormalizatio… │                   │            │                   │
├─────────────────────┼───────────────────┼────────────┼───────────────────┤
│ add_20 (Add)        │ (None, 8, 8, 256) │          0 │ max_pooling2d_19… │
│                     │                   │            │ batch_normalizat… │
├─────────────────────┼───────────────────┼────────────┼───────────────────┤
│ re_lu_20 (ReLU)     │ (None, 8, 8, 256) │          0 │ add_20[0][0]      │
├─────────────────────┼───────────────────┼────────────┼───────────────────┤
│ conv2d_74 (Conv2D)  │ (None, 8, 8, 256) │     65,792 │ re_lu_20[0][0]    │
├─────────────────────┼───────────────────┼────────────┼───────────────────┤
│ multiply_3          │ (None, 8, 8, 256) │          0 │ conv2d_74[0][0],  │
│ (Multiply)          │                   │            │ re_lu_20[0][0]    │
├─────────────────────┼───────────────────┼────────────┼───────────────────┤
│ conv2d_75 (Conv2D)  │ (None, 8, 8, 512) │  1,180,160 │ multiply_3[0][0]  │
├─────────────────────┼───────────────────┼────────────┼───────────────────┤
│ batch_normalizatio… │ (None, 8, 8, 512) │      2,048 │ conv2d_75[0][0]   │
│ (BatchNormalizatio… │                   │            │                   │
├─────────────────────┼───────────────────┼────────────┼───────────────────┤
│ conv2d_transpose_20 │ (None, 8, 8, 256) │  1,179,904 │ batch_normalizat… │
│ (Conv2DTranspose)   │                   │            │                   │
├─────────────────────┼───────────────────┼────────────┼───────────────────┤
│ batch_normalizatio… │ (None, 8, 8, 256) │      1,024 │ conv2d_transpose… │
│ (BatchNormalizatio… │                   │            │                   │
├─────────────────────┼───────────────────┼────────────┼───────────────────┤
│ up_sampling2d_15    │ (None, 16, 16,    │          0 │ batch_normalizat… │
│ (UpSampling2D)      │ 256)              │            │                   │
├─────────────────────┼───────────────────┼────────────┼───────────────────┤
…
